onnx_model/MediaLab_model.onnx (onnx, 390141 bytes, 16 tensors)

fc1.weight f4 [128, 150]
0	0x3c83f821	0.016109528
1	0x3e40dc43	0.18834023
2	0x3ca3829f	0.019959746
3	0x3dda3028	0.10653716
4	0xbd78889b	-0.060677152
5	0x3e56c275	0.20972617
6	0x3d956795	0.07295147
7	0x3e00c71c	0.12575954
8	0x3cb7579e	0.022380646
9	0x3e5a07a3	0.21291976
10	0xbd955368	-0.07291299
11	0xbd5c2b10	-0.053752005
12	0x3ddab090	0.10678208
13	0x3c08f203	0.008358481
14	0xbdd79dfc	-0.1052818
15	0x3db0ba4d	0.08629284
16	0xbd84dd36	-0.06487505
17	0xbde293f1	-0.11063374
18	0xbe2e798a	-0.17038551
19	0x3da32e24	0.07967785
20	0x3e065db1	0.13121678
21	0x3e3cb7dc	0.18429512
22	0x3d4afbfe	0.049556725
23	0x3e42959a	0.19002381
24	0xbdd1c3fe	-0.10242461
25	0x3dd5c241	0.104374416
26	0x3d9bcea6	0.076077744
27	0x3d3fa3a9	0.046786938
28	0x3d92ca79	0.07167525
29	0x3db8f40e	0.09030925
30	0x3ecc19d4	0.39863455
31	0x3dfdc836	0.12391703
32	0xbe4e9972	-0.20175722
33	0x3ea761be	0.3269176
34	0x3e029b10	0.12754464
35	0x3ea399c3	0.31953248
36	0xbd9bd619	-0.07609195
37	0xbe645365	-0.22297437
38	0xbe9c2c03	-0.30502328
39	0xbeecbecc	-0.46239316
40	0x3ec7050e	0.38871044
41	0x3df72d70	0.120692134
42	0xbe3b1b04	-0.18272024
43	0x3e895ce6	0.26828688
44	0x3cf4fe61	0.029906454
45	0x3e6b485d	0.22976823
46	0xbcada05a	-0.021194626
47	0xbe897f5c	-0.2685498
48	0xbeae406e	-0.3403353
49	0xbeb4bb3f	-0.35299107
50	0x3be6420f	0.0070269178
51	0xbba05454	-0.004892865
52	0xbd9f6b8d	-0.077841856
53	0xbc8588a3	-0.016300505
54	0x3d59bd86	0.05315926
55	0xbdc69b36	-0.09697573
56	0xbd268ea5	-0.04066338
57	0x3c8857b0	0.016643375
58	0x3dfaad31	0.12240065
59	0x3d152785	0.036414642
60	0xbe3241c5	-0.17407902
61	0xbeb16598	-0.34647822
62	0x3d12bbf8	0.035823792
63	0xbdf73dff	-0.12072372
64	0xbe20de7a	-0.15709868
65	0x3ea25d8c	0.31711996
66	0xbe9b2153	-0.30298862
67	0xbe668ac7	-0.22513877
68	0x3dd50987	0.10402208
69	0xbe35eca3	-0.17766051
70	0xbe7624a1	-0.2403741
71	0xbea726f8	-0.32646918
72	0x3cbd7860	0.023128688
73	0xbaa8601e	-0.0012846028
74	0xbe4ba558	-0.19887292
75	0x3e8a45fd	0.27006522
76	0xbe0cd4b9	-0.13753022
77	0xbe836337	-0.25661632
78	0xbe839011	-0.2569585
79	0xbeecaeae	-0.4622702
80	0xbd25ecb2	-0.040508933
81	0xbe71f785	-0.23629577
82	0xbe9e1620	-0.30876255
83	0xbce27879	-0.027645336
84	0xbf06d9e0	-0.526762
85	0xbf2af8a2	-0.66785634
86	0xbd7c4494	-0.06158884
87	0xbd5a8e96	-0.053358637
88	0xbe86f1a3	-0.2635623
89	0xbdce6802	-0.10078432
90	0x3eb61615	0.35563722
91	0x3d51da49	0.051233564
92	0xbdfe846c	-0.12427601
93	0x3eb518a6	0.35370368
94	0x3e32d28e	0.17463133
95	0x3ea16f00	0.3153
96	0x3dcf2c57	0.10115879
97	0xbd805b83	-0.062674545
98	0xbe824172	-0.25440556
99	0xbe251ad7	-0.1612352
100	0x3ed9eae5	0.42562023
101	0xbda41fc8	-0.08013874
102	0xba9d65a0	-0.0012008436
103	0x3de94375	0.113898195
104	0xbdbacfc9	-0.09121663
105	0x3f0f280b	0.55920476
106	0x3da821d8	0.0820958
107	0xbef8725f	-0.48524758
108	0xbe6a65f6	-0.22890458
109	0x3e071918	0.13193166
110	0xbe730ac8	-0.23734581
111	0xbe4452a5	-0.19172151
112	0xbe2510da	-0.1611971
113	0x3b125b51	0.002233226
114	0x3d51728c	0.05113463
115	0x3d7aa9a1	0.061196927
116	0x3e74b41e	0.23896834
117	0xbe1d77bd	-0.15377708
118	0xbec89cc9	-0.39182118
119	0x3ea48c6c	0.32138383
120	0x3de8b4df	0.113626234
121	0xbd9359c6	-0.07194857
122	0x3dba404c	0.09094295
123	0x3ca2fa57	0.019894762
124	0x3d31b12d	0.04338186
125	0xbd82ab3f	-0.06380319
126	0x3d82b169	0.063814946
127	0x3d1f21c0	0.038850546
128	0xbd6df652	-0.058096237
129	0xbd623840	-0.055229425
130	0xbde0a4e1	-0.10968948
131	0xbdd0c31e	-0.10193466
132	0xbd973619	-0.07383365
133	0xbd8ba041	-0.068176754
134	0x3c7471c4	0.014919702
135	0x3e3ecd2f	0.18632959
136	0xbe13fdf4	-0.14452344
137	0xbd5562ab	-0.05209605
138	0xbdb71f15	-0.08941475
139	0x3d4d9522	0.050191052
140	0xbcb669b7	-0.022267206
141	0xbe34fa38	-0.17673576
142	0xbbbb6d46	-0.0057198135
143	0xbe09b4dd	-0.134479
144	0xbd1a6f67	-0.037703898
145	0xbecffab3	-0.40620956
146	0x3e8ab17f	0.27088544
147	0x3e0801a9	0.13281883
148	0x3f2cc407	0.67486614
149	0xbe8d5ce8	-0.27609944
150	0x3eda4f95	0.4263884
151	0xbc29bae8	-0.010359503
152	0x3db014b6	0.085977
153	0xbdbff479	-0.09372801
154	0xbd832b61	-0.06404758
155	0xbc897689	-0.016780155
156	0x3d9f4032	0.07775916
157	0x3ad959a8	0.0016582506
158	0xbd01649f	-0.0315901
159	0xbd8e2de3	-0.06942346
160	0x3edc3d00	0.4301529
161	0x3def1880	0.11674595
162	0xba180718	-0.0005799397
163	0x3d172cab	0.036907833
164	0xbdaf8154	-0.08569589
165	0x3e36be90	0.17846131
166	0xbcfd3495	-0.030908862
167	0xbb7a6b48	-0.0038210917
168	0x3d27831e	0.040896527
169	0x3d1444b9	0.03619835
170	0x3ed51145	0.41614738
171	0xbd8805b2	-0.06641711
172	0x3bb48cd3	0.0055099516
173	0xbd98acc0	-0.074548244
174	0xbe021c4e	-0.1270611
175	0x3dbb8cb7	0.091576986
176	0x3dbe2622	0.09284617
177	0x3d0137ea	0.031547464
178	0xbc6ea02d	-0.014564556
179	0x3d4f6237	0.050630774
180	0xbef151bf	-0.4713268
181	0x3de5dfe1	0.11224342
182	0xbc5b2cc7	-0.013377375
183	0x3dcaa7f0	0.09895313
184	0xbe9fb5a1	-0.3119326
185	0x3cdc7b58	0.026914284
186	0x3b15bf44	0.00228496
187	0x3d243375	0.040088136
188	0xbe92c3cf	-0.28665015
189	0xbe939400	-0.28823853
190	0xbef5c777	-0.48003742
191	0x3d7149f3	0.058908414
192	0xbd4ef895	-0.050530035
193	0x3c94ba96	0.018155377
194	0xbe63e08a	-0.22253624
195	0x3c9f12a3	0.019418066
196	0xbdae516d	-0.085116245
197	0x3d92cb9a	0.0716774
198	0xbe82ad48	-0.25522828
199	0xbe925b74	-0.28585398
200	0xbd8387d6	-0.06422393
201	0xbda5e590	-0.08100426
202	0xbdbaf40a	-0.09128578
203	0xbd2c18b5	-0.04201575
204	0x3cd94ab2	0.026524875
205	0xbb5a1599	-0.0033277033
206	0x3d4122f7	0.047152486
207	0x3cc3933f	0.023873923
208	0x3dad488f	0.08461105
209	0x3e1e7257	0.15473305
210	0xbd3c6721	-0.04599679
211	0xbd95f622	-0.07322337
212	0x3dc2831b	0.09497663
213	0x3d1ca086	0.038239025
214	0xbcf41927	-0.02979715
215	0x3dd94d2f	0.10610425
216	0xbd98c736	-0.074598715
217	0xbda071f3	-0.07834234
218	0x3e0ab5a8	0.13545859
219	0xbdde1e00	-0.10845566
220	0x3d219105	0.039444942
221	0x3df838fe	0.121202454
222	0xbe0906a4	-0.1338144
223	0xbd76e347	-0.060275342
224	0xbc5c9b74	-0.013464797
225	0x3baf706f	0.0053539793
226	0xbe524ed3	-0.20537882
227	0xbdf39e4b	-0.11895426
228	0xbdd90e91	-0.105984814
229	0xbe2aa4dd	-0.16664453
230	0xbfb3a663	-1.4035152
231	0xbf0f83ba	-0.56060374
232	0xbebb4a45	-0.365801
233	0xbf06774b	-0.52525777
234	0xbf320665	-0.6954101
235	0xbf8cb5e6	-1.0993011
236	0x3e2f257d	0.17104144
237	0xbecba9a5	-0.39777866
238	0xbe97021a	-0.2949379
239	0xbecf1591	-0.4044614
240	0xbe6890c8	-0.2271148
241	0x3d464c98	0.04841289
242	0xbe233c65	-0.15941007
243	0x3e666fd0	0.2250359
244	0x3e967153	0.29383335
245	0xbde3a312	-0.111150876
246	0x3e6552d6	0.2239488
247	0xbe3a80a9	-0.18213142
248	0xbed5639c	-0.41677558
249	0xbf06fc8c	-0.52729106
250	0xbda10149	-0.07861573
251	0x3caf7b25	0.021421025
252	0xbd16ed95	-0.03684767
253	0xbdf3860d	-0.118908025
254	0xbc71d1a4	-0.014759455
255	0x3e75670b	0.23965089

fc1.bias f4 [128]
0	0x3e739b10	0.2378962
1	0x3e307f3f	0.1723604
2	0x3e050cac	0.12993115
3	0x3c97a220	0.018509924
4	0xbe31e58c	-0.17372721
5	0x3e97d4c3	0.29654512
6	0xbe4ee01f	-0.20202683
7	0x3d926240	0.07147646
8	0x3dcd703d	0.100311734
9	0x3d3bbcb1	0.045834247
10	0x3de3685d	0.1110389
11	0x3e116d8c	0.14201945
12	0x3d25e58d	0.04050212
13	0x3c13bfc7	0.009017891
14	0xbdbf7aa2	-0.09349562
15	0xbc0aabf4	-0.008463848
16	0xbe346de9	-0.17620052
17	0xbd87535d	-0.06607697
18	0x3d91c133	0.07116928
19	0x3c327137	0.01089125
20	0x3e8a8d8e	0.27061123
21	0x3dd0fd89	0.10204608
22	0x3dbfe487	0.0936976
23	0xbcdb80a0	-0.026794732
24	0xbc07610d	-0.008262885
25	0x3d25a924	0.04044451
26	0x3da11c82	0.078667656
27	0xbda5f97f	-0.08104228
28	0xbd2ebe70	-0.042662084
29	0xbe329f45	-0.17443569
30	0x3de3794c	0.1110712
31	0xbbf5fb2d	-0.007506749
32	0x3e963b40	0.2934208
33	0x3e394b65	0.18095167
34	0x3e1d76cc	0.15377349
35	0x3d20c31c	0.03924857
36	0x3d848dfa	0.064723924
37	0xbe57c829	-0.21072449
38	0x3d9cf814	0.07664505
39	0x3ce9c690	0.028537065
40	0x3d765ca1	0.06014693
41	0xbc6dd28d	-0.014515531
42	0xbddb4e96	-0.107083485
43	0x3db568ec	0.08857903
44	0x3e192285	0.14954574
45	0x3d64113e	0.055680506
46	0x3d00ccb4	0.03144522
47	0xbe365880	-0.17807198
48	0xbde71da8	-0.11284953
49	0x3d8b02cc	0.06787643
50	0xbb0714b8	-0.0020611715
51	0xbdc6cfed	-0.097076274
52	0xbe049582	-0.12947658
53	0x3df19b20	0.11797166
54	0xbe425e0b	-0.18981187
55	0x3d576fb0	0.052596748
56	0x3caf8001	0.021423342
57	0x3d8e2cdc	0.0694215
58	0x3e35626a	0.17713323
59	0x3d326546	0.043553613
60	0x3d02fa54	0.031977013
61	0x3e7934a1	0.24336483
62	0x3d8007ba	0.06251474
63	0xbd43c4b9	-0.04779503
64	0xbbe304a3	-0.006928043
65	0x3e5dd371	0.2166269
66	0x3ebdea16	0.37092656
67	0xbcdc3c93	-0.026884353
68	0x3dacda0d	0.084400274
69	0xbd86712d	-0.06564555
70	0x3e3b4bd9	0.18290652
71	0x3e3cda80	0.18442726
72	0x3d8f95ee	0.07011019
73	0x3b9ab633	0.004721427
74	0xbd34fcca	-0.04418639
75	0x3d190445	0.037357587
76	0xbe3390d3	-0.17535715
77	0x3cb0eab7	0.021596296
78	0x3da07fc1	0.07836867
79	0x3d3c3ca2	0.04595626
80	0xbe0010cf	-0.12506412
81	0x3e766056	0.24060187
82	0xbc60158d	-0.013677013
83	0xbdf16d92	-0.11788477
84	0xbe1e54c1	-0.15462019
85	0x39fed088	0.00048602023
86	0x3e2d5708	0.16927731
87	0x3e23512a	0.1594893
88	0x3e2ea42f	0.17054819
89	0x3d5f43c2	0.05450798
90	0xbd9307ae	-0.07179199
91	0x3b02ca42	0.001995698
92	0x3d2f266c	0.04276125
93	0xbe3aeb5c	-0.18253845
94	0xbd2ee67d	-0.04270028
95	0x3d3dc36e	0.046328954
96	0x3c9fd59e	0.01951104
97	0xbc8deeec	-0.01732584
98	0x3d727555	0.059193928
99	0xbbc17c3c	-0.0059047025
100	0x3d9afaa1	0.07567335
101	0x3e0b0b36	0.13578495
102	0xbe7cf992	-0.24704579
103	0xbdff2de2	-0.12459923
104	0x3d6217d4	0.055198506
105	0xbe17e76b	-0.14834373
106	0xbe17ce76	-0.14824852
107	0x3e1bd58f	0.15218185
108	0x3dba7366	0.09104042
109	0x3cae1b96	0.021253388
110	0x3e19c2e5	0.15015753
111	0x3da1f3d5	0.079078354
112	0x3dcba884	0.09944251
113	0x3cff65da	0.031176496
114	0xbdf7f694	-0.12107578
115	0x3d1f1e9e	0.03884756
116	0x3dc7df45	0.09759382
117	0x3dccb529	0.09995491
118	0x3e2621c2	0.16223815
119	0x3e6a9d95	0.22911675
120	0x3e4c3db6	0.19945416
121	0xbd87984c	-0.06620845
122	0xbce4ac58	-0.027914211
123	0xbba87ed5	-0.0051420727
124	0xbe681862	-0.22665551
125	0xbc9f18f3	-0.019421076
126	0x3e2e7159	0.17035426
127	0x3e36a27f	0.17835425

batch_norm.weight f4 [128]
0	0x3f2dc16d	0.6787327
1	0x3f8723cf	1.0557803
2	0x3f728dfc	0.947479
3	0x3f782de3	0.9694502
4	0x3f6cfbe7	0.9257187
5	0x3f3fbbdd	0.7489603
6	0x3f3a2ba1	0.7272282
7	0x3f66b736	0.9012331
8	0x3f766349	0.9624525
9	0x3f681f65	0.90672904
10	0x3f288545	0.65828353
11	0x3f28af9b	0.6589295
12	0x3f7c2575	0.98494655
13	0x3f6a7ade	0.9159373
14	0x3f727676	0.9471201
15	0x3fa53c95	1.2909113
16	0x3f891ff4	1.0712876
17	0x3f9673df	1.1754111
18	0x3f822456	1.0167339
19	0x3f951fc0	1.1650314
20	0x3f984491	1.1895925
21	0x3f72fbdd	0.9491556
22	0x3f7a0f5b	0.9767968
23	0x3f498150	0.7871294
24	0x3f31c821	0.69446
25	0x3fbe1314	1.4849572
26	0x3f8c310a	1.0952466
27	0x3f87ad87	1.0599831
28	0x3f8fe6e4	1.1242337
29	0x3f5b2512	0.8560344
30	0x3f22db8f	0.6361627
31	0x3f217a56	0.63077295
32	0x3f631e78	0.88718367
33	0x3f68b057	0.90894073
34	0x3f73c0ac	0.9521587
35	0x3f5ec832	0.87024224
36	0x3f94b4e6	1.1617706
37	0x3f83d3f9	1.0299064
38	0x3fae2f7e	1.3608243
39	0x3f2c0943	0.6720163
40	0x3f9d5bb2	1.2293608
41	0x3f545949	0.8294874
42	0x3f3217b8	0.6956744
43	0x3f7860e9	0.97022873
44	0x3f07edbe	0.5309714
45	0x3f6fef38	0.93724394
46	0x3f274b30	0.653491
47	0x3f62c182	0.8857652
48	0x3f811179	1.0083457
49	0x3f3a3c67	0.72748417
50	0x3f970514	1.1798425
51	0x3f1e0c6a	0.6173769
52	0x3f11dc41	0.56976706
53	0x3f85bfcf	1.044916
54	0x3f95dcf6	1.1708057
55	0x3f600648	0.87509584
56	0x3f4370ac	0.763438
57	0x3f7d6672	0.98984444
58	0x3f5f640a	0.8726202
59	0x3f633916	0.8875898
60	0x3f8a6894	1.0813165
61	0x3f4f8414	0.8106091
62	0x3f8ac338	1.0840826
63	0x3f372b36	0.7155031
64	0x3f608044	0.8769572
65	0x3f1a56b7	0.60288566
66	0x3f86350b	1.0484937
67	0x3f8b45b8	1.0880651
68	0x3f581bd5	0.8441747
69	0x3f77b98e	0.9676751
70	0x3f58ac67	0.84638065
71	0x3f7fec43	0.9996988
72	0x3f80dd47	1.0067528
73	0x3f6eb19f	0.9323978
74	0x3f64c778	0.89366865
75	0x3f64396d	0.89150125
76	0x3f3d9c77	0.7406687
77	0x3fb3dbbb	1.4051431
78	0x3f877232	1.0581725
79	0x3f5e16c7	0.86753505
80	0x3f693b6c	0.91106296
81	0x3f4c6ef5	0.79856807
82	0x3fa1e196	1.2646968
83	0x3f392902	0.723282
84	0x3f582330	0.8442869
85	0x3f446a82	0.7672502
86	0x3f611c40	0.8793373
87	0x3f551a66	0.83243406
88	0x3fa29088	1.2700357
89	0x3f603776	0.87584627
90	0x3f74a7a4	0.955683
91	0x3f1909a8	0.5978036
92	0x3f7b4493	0.9815151
93	0x3f96a752	1.1769812
94	0x3f79a3e6	0.97515714
95	0x3f845e2d	1.034124
96	0x3f61571c	0.88023543
97	0x3f31c8fa	0.6944729
98	0x3f2e98ca	0.6820189
99	0x3f6f0f25	0.93382484
100	0x3f3ed779	0.74547535
101	0x3f46d43a	0.7766758
102	0x3f865075	1.0493304
103	0x3f81ec9b	1.0150331
104	0x3f32d1e9	0.6985155
105	0x3f84fc9d	1.0389591
106	0x3f5bf9b7	0.8592791
107	0x3f66af73	0.90111464
108	0x3eceae3d	0.40367308
109	0x3f397b95	0.72454196
110	0x3f9cbf35	1.2245852
111	0x3f462a04	0.7740786
112	0x3f97247e	1.1808012
113	0x3f811da8	1.0087175
114	0x3f6f3ed3	0.9345524
115	0x3f149140	0.58034134
116	0x3f65741b	0.8963029
117	0x3f763919	0.96180874
118	0x3f8463ee	1.0342996
119	0x3f4c8b72	0.79900277
120	0x3f64c451	0.89362055
121	0x3f2a1794	0.6644223
122	0x3f627623	0.8846151
123	0x3f6bf11f	0.92164797
124	0x3fa9d387	1.3267678
125	0x3f9024c4	1.126122
126	0x3f4a2edb	0.78977746
127	0x3f7a74e3	0.97834605

batch_norm.bias f4 [128]
0	0xbe4b7eb7	-0.19872557
1	0xbf42085a	-0.75793993
2	0xbf210fb0	-0.6291456
3	0x3d0956c9	0.03353003
4	0xbdcfb0ca	-0.10141142
5	0xbec43eea	-0.3832925
6	0xbe1b1513	-0.15144758
7	0xbe55b845	-0.20871074
8	0xbf0675ae	-0.52523315
9	0xbf12af60	-0.5729885
10	0xbf36efdd	-0.7145975
11	0xbee057aa	-0.43816882
12	0xbe51e4e2	-0.20497468
13	0xbe298a45	-0.16556652
14	0xbdc28e02	-0.09499742
15	0xbe15ea3b	-0.14640133
16	0x3e960d4d	0.29307023
17	0xbeb5152d	-0.35367718
18	0xbde05738	-0.10954136
19	0xb83ff605	-4.5767072e-05
20	0x3caaef95	0.020866195
21	0xbe9de05c	-0.30835235
22	0xbde01855	-0.10942141
23	0xbec35b4a	-0.38155586
24	0x3e0c28ba	0.13687411
25	0x3e4f89a9	0.20267357
26	0xbe551fbc	-0.20812887
27	0xbe5cc209	-0.21558394
28	0x3e6aab6a	0.22916952
29	0xbf10e61b	-0.56601113
30	0xbeed979a	-0.46404725
31	0x3e4d7f2c	0.20068043
32	0xbf147fd2	-0.5800754
33	0xbef86f86	-0.48522586
34	0x3c53848b	0.012910019
35	0xbf2b426c	-0.66898227
36	0x3e49e128	0.19714797
37	0x3f1737f4	0.5906975
38	0x3e97c196	0.29639882
39	0xbd912a05	-0.07088093
40	0xbe0b5269	-0.13605656
41	0xbe911fab	-0.28344473
42	0x3f0ddf7f	0.5541915
43	0x3e46c88c	0.1941244
44	0xbddbd690	-0.10734284
45	0xbd6d93c3	-0.058002245
46	0xbd95a2ba	-0.07306428
47	0xbe419968	-0.18906176
48	0x3ba02008	0.004886631
49	0x3f5a1aaa	0.85196936
50	0x3e30797f	0.17233847
51	0xbf4e964c	-0.80698085
52	0x3eff5644	0.49870503
53	0x3ea2892c	0.3174528
54	0x3ea5aaa8	0.32356763
55	0xbf5549b1	-0.8331557
56	0xbf42b6a2	-0.76059926
57	0x3f37eaf5	0.7184289
58	0xbf362736	-0.7115358
59	0x3dadf8f0	0.08494747
60	0x3e936171	0.2878528
61	0xbf394783	-0.72374743
62	0x3e7e0fd5	0.24810727
63	0xbf53d18f	-0.82741636
64	0xbe1d21fc	-0.15344995
65	0xbf137b80	-0.5761032
66	0x3e3459ed	0.17612429
67	0x3ec5770d	0.3856739
68	0xbf17efe8	-0.5935044
69	0xbf05fb6a	-0.5233675
70	0x3dd9d39d	0.10636065
71	0x3de01b49	0.10942704
72	0x3eddd313	0.433251
73	0x3ec00eaf	0.37511203
74	0xbe60b8df	-0.21945523
75	0x3de63537	0.11240619
76	0xbf1e40cc	-0.6181762
77	0x3e86bb65	0.26314846
78	0xbe9accc9	-0.30234364
79	0xbf214b8a	-0.6300589
80	0x3e1ec6e1	0.15505554
81	0x3cf17451	0.02947441
82	0xbf11ac09	-0.5690313
83	0xbe37d370	-0.17951751
84	0xbed7ae74	-0.42125285
85	0xbe02e1fe	-0.12781522
86	0xbf1261c8	-0.5718045
87	0x3ee2329a	0.4417923
88	0x3d7a2049	0.061065946
89	0xbf207e36	-0.6269258
90	0x3d97d99b	0.07414552
91	0xbd6d5f15	-0.057952005
92	0xbda7ea24	-0.08198956
93	0xbe382e35	-0.17986377
94	0xbdd2613b	-0.102724515
95	0x3e22b2a4	0.15888458
96	0xbe22203f	-0.15832613
97	0xbed04abf	-0.40682027
98	0xbe326ca1	-0.17424251
99	0x3b026a43	0.0019899763
100	0xbe191c6c	-0.14952248
101	0xbf445b06	-0.7670139
102	0xbe03b694	-0.12862617
103	0xbd8084d5	-0.06275336
104	0xbea72a14	-0.3264929
105	0x3e5010f2	0.20318964
106	0xbec03774	-0.37542307
107	0xbe4fb8ba	-0.20285311
108	0x3e3b606f	0.18298505
109	0xbdad848c	-0.08472547
110	0xbd73011a	-0.059327222
111	0x3d2b91f1	0.041887227
112	0x3f1d922f	0.61551183
113	0x3e96b92c	0.2943815
114	0xbf381d30	-0.71919537
115	0xbe49e2d1	-0.1971543
116	0xbe885cb1	-0.26633218
117	0xbe459246	-0.1929408
118	0xbd81a672	-0.06330575
119	0x3d2ae4b4	0.041722015
120	0x3e719229	0.23590912
121	0xbf20c687	-0.6280293
122	0xbee71031	-0.4512954
123	0xbf3a7d1b	-0.72847146
124	0x3e0b3619	0.13594855
125	0xbe20e68d	-0.15712948
126	0xbf2ccae9	-0.67497116
127	0x3e2db37a	0.16962996

batch_norm.running_mean f4 [128]
0	0x3e874f3c	0.2642764
1	0x3da05a0e	0.078296766
2	0xbe85d447	-0.26138517
3	0xbd3d6a95	-0.046244223
4	0xbe067fbe	-0.13134667
5	0xbf224deb	-0.63400143
6	0x3e2c9b82	0.16856197
7	0x3d3ac902	0.045601852
8	0x3dfa2a17	0.12215059
9	0xbe81258f	-0.25223967
10	0xbf44e565	-0.7691253
11	0x3e9ee7bf	0.31036183
12	0x3e6d01ea	0.23145261
13	0x3dc599f2	0.09648503
14	0x3e0707d6	0.13186583
15	0x3d8691e4	0.06570795
16	0xbcf12c18	-0.02943997
17	0xbdba239f	-0.090888254
18	0x3e84e900	0.25959015
19	0x3eab7e28	0.33494687
20	0x3f13bfec	0.57714725
21	0xbd25444d	-0.04034834
22	0x3e19e6f5	0.1502951
23	0xbe68f7e1	-0.22750808
24	0x3e581e70	0.21105361
25	0x3d962d22	0.07332827
26	0x3ec83b64	0.3910781
27	0xbe9a81e5	-0.30177227
28	0x3ed53f1d	0.41649714
29	0x3d32f2f0	0.043688715
30	0x3def9935	0.11699144
31	0xbf30eadc	-0.69108367
32	0xbae27302	-0.0017276707
33	0x3c03c64f	0.008042886
34	0x3ed286ef	0.4111857
35	0xbd22a45d	-0.03970753
36	0x3f029033	0.5100128
37	0x3d49cf4b	0.049269956
38	0x3ec9e070	0.39429045
39	0xbc93e23a	-0.01805221
40	0x3df2a765	0.11848334
41	0xbceac3bb	-0.028657785
42	0x3e9ceb26	0.30648154
43	0x3db4a04b	0.08819636
44	0x3e4038fb	0.18771736
45	0x3f0b28d7	0.5435919
46	0x3e384173	0.17993717
47	0x3ca02c9e	0.019552525
48	0xbe4451e7	-0.19171868
49	0x3f03c857	0.5147757
50	0x3f1d1ae1	0.6136914
51	0xbea0d428	-0.31411862
52	0x3eaef6f1	0.34172776
53	0x3d9f529b	0.077794276
54	0xbac0f38e	-0.0014721022
55	0xbed9f312	-0.4256826
56	0xbc0388ca	-0.0080282185
57	0x3e19a698	0.15004957
58	0x3e131f3f	0.14367388
59	0xbe94cc91	-0.29062322
60	0x3e13ca47	0.14432631
61	0xbeb84273	-0.35988197
62	0x3e3a7ef2	0.18212488
63	0xbf1b6461	-0.6070004
64	0x3d4e8fc8	0.05043009
65	0x3e147623	0.1449819
66	0x3efd787b	0.49505982
67	0x3db80409	0.08985145
68	0x3e8cc018	0.27490306
69	0x3d501b41	0.05080724
70	0x3e164f9e	0.14678809
71	0x3d48a5d3	0.048986267
72	0x3e3f5d29	0.18687882
73	0x3e78193d	0.24228378
74	0xbe9e159d	-0.30875865
75	0xbe7d0ece	-0.24712679
76	0xbf348ca3	-0.70527095
77	0xbdc38755	-0.09547297
78	0x3e8496ea	0.25896388
79	0xbf0f938d	-0.5608452
80	0x3ead4068	0.338382
81	0x3e294111	0.16528727
82	0x3e37ce69	0.17949833
83	0x3df81dab	0.12115034
84	0xbed85fc9	-0.42260578
85	0x3e5e383c	0.21701139
86	0xbe85d65b	-0.26140103
87	0xbd1c9091	-0.038223807
88	0x3ee04de5	0.4380943
89	0xbed611d8	-0.4181049
90	0xbcf7b08d	-0.030235553
91	0xbd0d3ca2	-0.034481652
92	0x3cc7532d	0.024331653
93	0xbecf086f	-0.40436122
94	0xbe82952b	-0.2550443
95	0xbd02f15c	-0.03196846
96	0x3d8e78f6	0.06956665
97	0xbe0743c4	-0.13209444
98	0xbd807fee	-0.06274401
99	0xbce8534b	-0.02836003
100	0x3e8e6e5f	0.2781858
101	0xbf803cbb	-1.0018533
102	0xbedfb688	-0.43693948
103	0xbeceaa8f	-0.403645
104	0x3ec2a4da	0.38016397
105	0x3dab5ece	0.08367692
106	0xbc832611	-0.016009362
107	0xbdab2af5	-0.08357803
108	0x3e87dc0f	0.2653508
109	0xbd448110	-0.047974646
110	0x3eb0842f	0.34475848
111	0x3c6565bd	0.014001307
112	0x3e8bec66	0.27328795
113	0x3e66736f	0.22504972
114	0xbe968b13	-0.2940298
115	0x3f416481	0.7554398
116	0x3f4fce1f	0.8117389
117	0xbedb22e0	-0.42800045
118	0x3ef37fb4	0.47558367
119	0x3ed55871	0.41669038
120	0x3ef8ba03	0.48579416
121	0xbe0bc8e7	-0.13650857
122	0x3dd39552	0.10331215
123	0xbd4ee80e	-0.050514273
124	0xbdaaeda3	-0.08346107
125	0x3dbff24c	0.09372386
126	0xbdfe5e7a	-0.12420364
127	0x3e5293bc	0.20564169

batch_norm.running_var f4 [128]
0	0x3cc1e3ad	0.023668135
1	0x3bd7e16f	0.006588153
2	0x3be15f77	0.0068778354
3	0x3b6da307	0.0036260502
4	0x3c4b0420	0.01239112
5	0x3ca00bbe	0.01953685
6	0x3c1ca42f	0.009560629
7	0x3cafc2b8	0.021455154
8	0x3c2bbc85	0.010481958
9	0x3d113566	0.035451315
10	0x3c826deb	0.015921554
11	0x3c650a7d	0.013979551
12	0x3d829e34	0.06377831
13	0x3c32691e	0.01088932
14	0x3c82105b	0.01587694
15	0x3c0656f8	0.008199446
16	0x3b269c73	0.002542284
17	0x3c8856b6	0.01664291
18	0x3d0ce58f	0.03439861
19	0x3cc023b3	0.023454523
20	0x3bad5d2e	0.005290649
21	0x3c6b165d	0.014348594
22	0x3cafa73b	0.021442046
23	0x3cde444a	0.027132172
24	0x3cad2ae0	0.021138608
25	0x3c08dea8	0.008353867
26	0x3c81da5a	0.015851188
27	0x3d0181fd	0.031618107
28	0x3c8f04a3	0.017458266
29	0x3c2f2708	0.010690458
30	0x3bbc56ff	0.0057476754
31	0x3d9c37c1	0.07627822
32	0x3db6bbf6	0.089225695
33	0x3c2435a7	0.010022557
34	0x3d1b6f94	0.037948206
35	0x3c96960e	0.018382099
36	0x3d89582a	0.06706269
37	0x3d1c2e6e	0.038130216
38	0x3c8f5a23	0.017499035
39	0x3bfed5de	0.00777696
40	0x3c02f364	0.007992599
41	0x3c5f5989	0.013632187
42	0x3c8f6cb4	0.017507888
43	0x3c25834d	0.010102105
44	0x3cd8c7fd	0.02646255
45	0x3d84c2d6	0.064824745
46	0x3d32340a	0.04350666
47	0x3bc7aa3d	0.006093292
48	0x3c1ddd37	0.009635261
49	0x3d2baaee	0.041911058
50	0x3d35d6b9	0.04439423
51	0x3c85e9f5	0.016346911
52	0x3bcf2cdb	0.006322486
53	0x3bf0c410	0.007347591
54	0x3db54063	0.088501714
55	0x3d605a5a	0.054773666
56	0x3c5b2066	0.013374424
57	0x3cc47e2b	0.023985943
58	0x3c419903	0.011816266
59	0x3b8a64b9	0.004223433
60	0x3cf17759	0.029475855
61	0x3de10b03	0.109884284
62	0x3b6d44bf	0.0036204306
63	0x3d3e8f58	0.046523422
64	0x3bece58b	0.007229512
65	0x3b32be50	0.002727408
66	0x3b95413c	0.0045548957
67	0x3c36692d	0.011133474
68	0x3b9ac403	0.0047230734
69	0x3c18e553	0.009332019
70	0x3b2aa5c5	0.0026038748
71	0x3c190bf7	0.009341232
72	0x3be8603b	0.0070915497
73	0x3d0bb42a	0.034107365
74	0x3cb6aa16	0.0222979
75	0x3d39ad8f	0.045331534
76	0x3c51c843	0.012804094
77	0x3d006550	0.03134662
78	0x3c6c6dbe	0.014430461
79	0x3e17df64	0.1483131
80	0x3c2da512	0.010598438
81	0x3c71db26	0.014761722
82	0x3b5b92e8	0.003350431
83	0x3b6e41ef	0.0036355217
84	0x3cc2887b	0.02374672
85	0x3ca0a671	0.019610615
86	0x3c14af0c	0.009074938
87	0x3c254e4c	0.010089468
88	0x3b6bc11e	0.003597326
89	0x3d511342	0.051043756
90	0x3c100e51	0.008792476
91	0x3d12e7e0	0.035865664
92	0x3c11df63	0.008903357
93	0x3c78e8d2	0.015192227
94	0x3bce9f41	0.0063056056
95	0x3c3ae6e2	0.011407586
96	0x3ba276c3	0.004958005
97	0x3c8348c0	0.0160259
98	0x3bcb2a4f	0.006200112
99	0x3bb37b77	0.0054773646
100	0x3c982960	0.018574417
101	0x3ce83fa0	0.028350651
102	0x3b88d189	0.004175369
103	0x3c06428f	0.00819458
104	0x3b8b46cd	0.0042503835
105	0x3c5b5e7e	0.013389228
106	0x3beaab89	0.007161562
107	0x3c86d1ac	0.016457401
108	0x3c2d3dae	0.010573788
109	0x3bd79de4	0.0065801013
110	0x3bce85ac	0.006302556
111	0x3b80eb0b	0.0039342693
112	0x3c2a972f	0.010412022
113	0x3ba36022	0.004985825
114	0x3b30ed72	0.0026996997
115	0x3c466ebe	0.012111364
116	0x3c71958a	0.014745126
117	0x3be9d0e8	0.0071354993
118	0x3cebd7f3	0.028789496
119	0x3ba5af1d	0.0050562755
120	0x3c280f42	0.010257544
121	0x3bfc7a3a	0.007705
122	0x3c3432f9	0.010998481
123	0x3c3c0925	0.01147679
124	0x3ccd0212	0.025025401
125	0x3c54df5e	0.012992708
126	0x3c09657b	0.008386011
127	0x3bb8eb63	0.0056432947

fc2.weight f4 [256, 128]
0	0xbe13b9f8	-0.1442641
1	0x3e7121e1	0.2354808
2	0x3dc57f35	0.096434034
3	0xbd0fd6d6	-0.035116993
4	0xbd5882e2	-0.052859195
5	0x3e8d8728	0.2764218
6	0xbe2893a8	-0.16462576
7	0xbddd04aa	-0.10791905
8	0x3bfcb342	0.007711799
9	0x3d20f719	0.03929815
10	0x3de9462c	0.11390337
11	0xbec03aea	-0.37544948
12	0xbe83cecb	-0.25743708
13	0xbd953fb4	-0.07287541
14	0x3d8deb63	0.06929662
15	0x3ee8a0ad	0.45435086
16	0xbce459e7	-0.0278749
17	0x3dac1bc6	0.08403735
18	0xbc899cea	-0.016798455
19	0x3d5f1be5	0.05446996
20	0xbe3fee98	-0.1874336
21	0xbe38b308	-0.18037045
22	0xbea903fd	-0.33010855
23	0xbd0db6f4	-0.034598306
24	0xbe94b3b6	-0.2904336
25	0x3dfcd062	0.12344433
26	0xbdfa51ac	-0.12222609
27	0x3e4d0c4a	0.20024219
28	0xbdee7f96	-0.11645429
29	0x3d2eb90c	0.042656943
30	0xbd3fff5a	-0.04687438
31	0xbe0bb919	-0.13644828
32	0xbb100ea3	-0.002198138
33	0xbdd6fdca	-0.10497625
34	0xbe4064d6	-0.18788466
35	0x3d2701f1	0.040773336
36	0xbe8a0de8	-0.26963735
37	0xbe8e08b8	-0.27741027
38	0xbe05d023	-0.13067679
39	0xbde36c5a	-0.11104651
40	0xbe262aee	-0.16227314
41	0x3defdc1f	0.11711907
42	0x3e816f37	0.25280163
43	0xbc824531	-0.015902134
44	0x3ca03c1e	0.019559916
45	0xbeb84d0f	-0.3599629
46	0xbe07dff8	-0.13269031
47	0x3c91df4a	0.017806668
48	0xbe14ffa9	-0.14550652
49	0xbe60392a	-0.21896806
50	0xbc0329cb	-0.00800557
51	0xbd67444c	-0.056461617
52	0x3e084bf0	0.13310218
53	0xbe12f56f	-0.14351438
54	0xbdeed646	-0.11661963
55	0x3d43758b	0.04771952
56	0x3e0ebfba	0.13940325
57	0x3de84f2e	0.11343227
58	0xbd882c19	-0.06649036
59	0xbe97fc27	-0.29684564
60	0x3d7ffb87	0.062495735
61	0x3d3ab7d0	0.045585454
62	0x3d26e0ed	0.04074185
63	0xbd8c2e66	-0.06844787
64	0xbb231e8d	-0.0024890036
65	0x3dbc1451	0.091835625
66	0x3d9b8ed0	0.07595599
67	0x3e008567	0.12550889
68	0xbe56ef7b	-0.20989792
69	0xbe3c3675	-0.18380149
70	0xbe2a63ad	-0.16639586
71	0x3e54c8d5	0.20779736
72	0x3e8a5030	0.27014303
73	0x3d9edd81	0.07757092
74	0xbe3e31a3	-0.18573622
75	0x3dde2c4e	0.10848294
76	0xbd92276a	-0.07136424
77	0x3cf68b4b	0.030095717
78	0x3d8b88de	0.06813215
79	0xbd7601fe	-0.060060494
80	0x3eac9a8b	0.33711657
81	0xbc8190d0	-0.015816122
82	0xbe920c8d	-0.285252
83	0xbde89749	-0.1135698
84	0xbdb6f572	-0.08933534
85	0xbd90c544	-0.070688754
86	0xbd026a2b	-0.03183953
87	0x3e91f30b	0.2850574
88	0xbe8e3893	-0.27777538
89	0xbe24609e	-0.16052482
90	0x3d532164	0.051545516
91	0xbdcf73a6	-0.1012948
92	0x3e377b7c	0.179182
93	0x3d570232	0.052492328
94	0x3dfe2cdd	0.12410901
95	0x3e86926a	0.2628358
96	0xbeabce4e	-0.33555835
97	0x3ddefec5	0.10888437
98	0xbdc5d32e	-0.0965942
99	0x3eb5f63c	0.35539424
100	0x3caa700e	0.020805385
101	0x3e5219e0	0.20517683
102	0x3d8de9e0	0.06929374
103	0x3d2368b9	0.039894793
104	0xbced5f55	-0.028976122
105	0xbe2c3b91	-0.16819598
106	0xbca0464c	-0.01956477
107	0xbd98d0bd	-0.07461689
108	0xbdf49e18	-0.119442165
109	0xbe825762	-0.25457293
110	0xbcc2ec23	-0.02379424
111	0xbd497e4d	-0.049192715
112	0x3d4d0331	0.05005187
113	0xbc5667d1	-0.013086275
114	0xbe41aca7	-0.18913518
115	0xbe8a3d47	-0.26999876
116	0xbda02c27	-0.078209214
117	0xbe49eb74	-0.19718724
118	0x3dcaad22	0.09896304
119	0xbc382851	-0.011240081
120	0x3e386b65	0.18009718
121	0xbe3583ef	-0.1772611
122	0x3e8007f1	0.2500606
123	0x3d4bf4d8	0.049794048
124	0x3dd7f5a4	0.10544899
125	0x3e036df0	0.12834907
126	0xbb40bcfe	-0.0029409523
127	0xbd112c55	-0.03544267
128	0xbe046279	-0.1292819
129	0xbdb5e2d2	-0.08881153
130	0x3d9745f0	0.073863864
131	0xbaa3a2e3	-0.0012484457
132	0x3d6b6eda	0.057478763
133	0x3dfa8eb4	0.1223425
134	0xbd20ce6c	-0.03925936
135	0xbe7077b1	-0.23483159
136	0xbe285cda	-0.1644167
137	0x3e4f4f92	0.20245197
138	0x3dc678cd	0.0969101
139	0x3d24aeca	0.040205754
140	0xbda52832	-0.08064307
141	0x3dc86429	0.09784729
142	0x3dae779d	0.08518908
143	0xbddd9f70	-0.10821426
144	0x3e1962ea	0.14979139
145	0xbbfcb66a	-0.007712175
146	0xbdcd1e59	-0.10015554
147	0x3d1e0348	0.038577348
148	0xbe91c2fb	-0.2846907
149	0xbbe89266	-0.00709753
150	0x3d8b253c	0.06794211
151	0xbe0ea305	-0.13929375
152	0x3d58b144	0.05290343
153	0xbe910f42	-0.28331953
154	0x3c1be5b2	0.009515213
155	0x3d7c3f88	0.061584026
156	0xbdbc95b0	-0.09208238
157	0xbd5404c0	-0.051762342
158	0x3cf4a96f	0.029865948
159	0x3d9a98a4	0.07548645
160	0x3dc2093c	0.094744176
161	0x3e10e162	0.14148477
162	0x3d8c9c43	0.06865742
163	0x3b84a8ff	0.004048466
164	0x3d7cb987	0.06170037
165	0xbded2284	-0.11578849
166	0x3dfe5b23	0.12419727
167	0x3a01483a	0.0004931722
168	0xbcfd258d	-0.030901695
169	0x3e5816b4	0.2110241
170	0xbe299ab1	-0.16562916
171	0xbc8b12c3	-0.01697672
172	0xbb950264	-0.004547404
173	0x3c4bb32d	0.012432856
174	0x3d913846	0.070908114
175	0x3e41a9cf	0.18912433
176	0xbddc0d44	-0.10744718
177	0xbea3cc44	-0.3199178
178	0x3e523786	0.20528993
179	0x3e315037	0.17315756
180	0xbe583158	-0.21112573
181	0xbe81d104	-0.2535478
182	0x3e40fa6b	0.18845527
183	0x3d962625	0.07331494
184	0xbe7d00e9	-0.24707378
185	0xbd4ce70f	-0.050025042
186	0x3e2adeb3	0.16686516
187	0xbe5b2946	-0.21402463
188	0xbdb77309	-0.08957488
189	0x3d6afda0	0.057370782
190	0x3dcf0599	0.101084895
191	0x3e744cf7	0.23857485
192	0xbd46696e	-0.04844039
193	0x3dce9608	0.1008721
194	0x3bfe3578	0.007757839
195	0xbf1c45bf	-0.61043924
196	0x3d7dce85	0.06196453
197	0xb94fd1c7	-0.00019819206
198	0xbe3f0e86	-0.18657884
199	0xbe333188	-0.17499363
200	0x3de63a56	0.112415954
201	0x3e3c6a59	0.18399943
202	0x3d3cb973	0.046075296
203	0x3d8b118f	0.067904584
204	0x3de15cfb	0.11004063
205	0xbe911e24	-0.28343308
206	0xbe50cf6f	-0.2039163
207	0x3d78010c	0.060547873
208	0xbec4cb55	-0.3843638
209	0xbdf5e47c	-0.120064706
210	0x3d8ac26e	0.06775366
211	0xbe1fa9e2	-0.15592149
212	0xbdaa48f1	-0.08314694
213	0xbe1b5d33	-0.15172271
214	0x3c7a25b6	0.01526778
215	0x3dcc6178	0.09979528
216	0xbd01acd9	-0.03165898
217	0x3df76c64	0.12081221
218	0x3dba2241	0.09088565
219	0xbdcbc751	-0.09950126
220	0x3d509591	0.050923888
221	0xbddb8f47	-0.10720687
222	0xbe421c6d	-0.18956156
223	0xbdae2baf	-0.08504426
224	0xbdd19318	-0.10233134
225	0x3c765a9e	0.015036253
226	0xbdfc8f89	-0.12332065
227	0x3d449641	0.047994856
228	0x3bd46ba7	0.0064825597
229	0x3d6d7e0a	0.05798153
230	0xbc99844d	-0.018739844
231	0xbe1f9faa	-0.15588251
232	0x3e319655	0.17342503
233	0x3d11560c	0.03548245
234	0x3c4f639d	0.012658027
235	0xbc22f71e	-0.009946613
236	0xbe1c2b1d	-0.15250821
237	0xbdc6790b	-0.09691056
238	0x3e7136c3	0.23556046
239	0xbe04f1bb	-0.12982838
240	0xbd92fb94	-0.07176891
241	0x3daf7652	0.0856749
242	0x3e5d283c	0.2159738
243	0x3d7b0390	0.061282694
244	0xbe055fa5	-0.13024767
245	0x3e391a27	0.18076383
246	0x3c3e1370	0.011601314
247	0xbea83fa8	-0.32861066
248	0x3e17c772	0.14822176
249	0x3bd04885	0.0063563013
250	0xbcd37c9b	-0.025816252
251	0x3d219e86	0.03945782
252	0xbec587ab	-0.3858007
253	0x3e95afce	0.2923569
254	0x3d442d93	0.047895025
255	0x3e69dd0e	0.22838232

fc2.bias f4 [256]
0	0xbd9e030b	-0.07715424
1	0xbe911f9e	-0.28344434
2	0x3d95e99a	0.073199466
3	0xbe7472fd	-0.2387199
4	0x3e29cc82	0.1658192
5	0x3e1a8767	0.15090714
6	0x3e114db7	0.14189802
7	0xbe10cbac	-0.14140195
8	0xbf0d447b	-0.5518262
9	0xbee014e9	-0.43765953
10	0xbdd0d7bd	-0.10197399
11	0x3de3c7b9	0.111220784
12	0xbd1b88da	-0.03797231
13	0xbd1a3803	-0.037651073
14	0x3dae82df	0.085210554
15	0xbe352f2e	-0.17693779
16	0xbe42a737	-0.190091
17	0x3e07d4c2	0.13264754
18	0x3d9a28ca	0.07527311
19	0x3ef2d14a	0.474253
20	0x3f11ada9	0.5690561
21	0x3c21caef	0.009875043
22	0x3dcaad94	0.09896389
23	0x3e283ca3	0.16429381
24	0xbc18e834	-0.009332705
25	0x3d16e876	0.036842786
26	0x3e7d7313	0.24750929
27	0x3e218815	0.15774567
28	0xbe4fc424	-0.20289665
29	0xbe939e37	-0.28831646
30	0x3e23f820	0.16012621
31	0x3dcb003f	0.09912156
32	0xbd1e56a5	-0.03865685
33	0xbecfe901	-0.40607455
34	0x3ed800a7	0.42187998
35	0x3d831314	0.06400123
36	0x3e3d3f4e	0.1848118
37	0xbe819065	-0.25305477
38	0xbe66a231	-0.22522809
39	0x3e81793c	0.25287807
40	0xbe53fd4e	-0.20702097
41	0xbc7ecde6	-0.01555202
42	0x3e214cf2	0.15752009
43	0xbcc31fcb	-0.023818871
44	0xbe8521ef	-0.26002452
45	0xbbb7b998	-0.0056068413
46	0x3e22f4df	0.15913723
47	0x3eef5fec	0.4675287
48	0x3da660d5	0.08123938
49	0xbe2980fd	-0.16553111
50	0xbe7b06e6	-0.2451435
51	0x3e20c94f	0.15701793
52	0xbdc78a97	-0.09743231
53	0xbe880962	-0.2656966
54	0x3eb67914	0.3563925
55	0xbe8fe2c4	-0.28102696
56	0x3e86dd08	0.26340508
57	0x3e05708e	0.13031217
58	0xbea19d8a	-0.31565505
59	0xbd8f7efe	-0.07006644
60	0x3ea667cf	0.32501075
61	0x3e77f88b	0.24215905
62	0x3edc066c	0.4297365
63	0x3e9f3a6d	0.31099263
64	0xbe9be9a0	-0.3045168
65	0xbea3e147	-0.3200781
66	0x3d3bcdf6	0.045850717
67	0x3e01bee0	0.1267047
68	0x3e2ff944	0.17184931
69	0x3e1c9bc0	0.15293789
70	0x3e150f1e	0.14556548
71	0xbe82d3dd	-0.25552264
72	0x3e913076	0.28357285
73	0xbe98632e	-0.29763168
74	0x3e536de3	0.20647387
75	0xbe5103ef	-0.20411657
76	0xbebacf13	-0.3648611
77	0xbed79062	-0.42102343
78	0xbe58a1c7	-0.21155463
79	0x3e382066	0.17981109
80	0x3d4cfff9	0.050048802
81	0x3cc29c27	0.0237561
82	0x3d6bc711	0.05756289
83	0x3ea8196c	0.32831895
84	0x3ea25d14	0.31711638
85	0x3e96ff75	0.29491773
86	0x3be6cd32	0.007043504
87	0xbc0d3eef	-0.008620962
88	0x3e4c9832	0.19979933
89	0xbe7249fe	-0.23661038
90	0x3eb6e844	0.3572408
91	0xbd10a910	-0.03531748
92	0x3e8769c9	0.26447895
93	0x3c339350	0.010960415
94	0xbee95881	-0.45575336
95	0x3ea551b0	0.32288885
96	0x3cf73c51	0.030180128
97	0x3ec42f0a	0.38317138
98	0x3e7b7acf	0.24558567
99	0x3ceccc32	0.028905962
100	0x3e0e7918	0.13913381
101	0xbd574878	-0.052559346
102	0xbd871893	-0.06596484
103	0xbec363c5	-0.38162056
104	0x3d9d5ff5	0.07684318
105	0xbd4ed351	-0.050494496
106	0x3e5a5e42	0.21325019
107	0xbf09e5b4	-0.53866124
108	0x3e8ab01f	0.27087495
109	0xbe1620c7	-0.14660941
110	0xbf15f249	-0.5857282
111	0xbe38d864	-0.18051296
112	0x3d36e6c1	0.044653658
113	0xbd9f096a	-0.077654675
114	0xbd3f97b3	-0.04677553
115	0x3ebe4ca2	0.3716784
116	0xbe821ebf	-0.25414082
117	0x393d3f2c	0.00018047978
118	0xbc4d6fe9	-0.0125388885
119	0x3e97d0ce	0.29651493
120	0x3e0378bc	0.12839025
121	0xbf31fae3	-0.6952345
122	0x3ee534f2	0.44766957
123	0x3e685e2b	0.22692172
124	0x3dc94704	0.09827998
125	0x3e39dea3	0.18151335
126	0xbeb9938c	-0.36245382
127	0x3e6d4baf	0.23173402
128	0x3e3996ac	0.18123883
129	0xbca1a860	-0.019733608
130	0x3e98d056	0.29846448
131	0x3e884787	0.2661707
132	0x3da857c7	0.08219867
133	0xbedd4be8	-0.43221974
134	0xbc9daeb9	-0.019248353
135	0xbe2edce8	-0.17076457
136	0x3eae92ca	0.34096366
137	0xbe8f5863	-0.2799712
138	0xbea295fe	-0.3175506
139	0xbeacc25f	-0.33742043
140	0xbdb9841f	-0.09058403
141	0xbe0955ce	-0.13411638
142	0x3df57b08	0.11986357
143	0xbed95c1a	-0.4245308
144	0xbe0d1b26	-0.13779888
145	0x3e294c63	0.16533045
146	0xbda4a86d	-0.08039937
147	0x3dd5e516	0.10444085
148	0xbdb30a41	-0.0874219
149	0xbedac7d9	-0.42730597
150	0x3ec463a1	0.3835726
151	0xbd354870	-0.044258535
152	0x3b9db7bb	0.004813162
153	0x3d40f411	0.04710776
154	0xbb96023e	-0.004577904
155	0x3f15f33b	0.58574265
156	0xbd86ca88	-0.065815985
157	0xbf06b27e	-0.5261611
158	0xbdc54c7f	-0.09633731
159	0xbecabe1e	-0.39598173
160	0x3e8d35e9	0.27580193
161	0x3e8c63f6	0.27420014
162	0x3d2d16c3	0.042258035
163	0x3f05889e	0.52161586
164	0x3e3e24c8	0.18568718
165	0xbdb2deda	-0.08733912
166	0x3c85267e	0.016253706
167	0x3efca133	0.49341735
168	0xbe411cd9	-0.18858661
169	0xbf252f8f	-0.64525694
170	0xbdad3dbb	-0.0845904
171	0x3f0d6c93	0.55243796
172	0x3eb96b07	0.36214468
173	0x3e953dd5	0.29148737
174	0x3ec04551	0.37552884
175	0x3d81f7a5	0.063460626
176	0x3e1f0f69	0.15533222
177	0xbca089b9	-0.019596921
178	0xbe52330c	-0.20527285
179	0x3e251bef	0.16123937
180	0x3e5fe88b	0.21866052
181	0xbe46d96d	-0.19418879
182	0xbe0bb5f7	-0.13643633
183	0xbe9b4f19	-0.30333784
184	0x3e0ecb7b	0.13944809
185	0xbe90905b	-0.28235134
186	0x3e1dc21b	0.15406077
187	0xbe77950a	-0.24177948
188	0xbe6524f1	-0.22377373
189	0xbddd55e3	-0.10807397
190	0x3ed05593	0.40690288
191	0x3df81476	0.121132776
192	0xbeb546c0	-0.3540554
193	0x3e43022b	0.19043796
194	0x3e8a7d69	0.27048805
195	0x3eea44a4	0.45755494
196	0xbe67c82e	-0.22634956
197	0x3e75b9ca	0.23996654
198	0xbe6f0706	-0.23342523
199	0xbecffef6	-0.40624207
200	0xbe4ee67f	-0.20205115
201	0xbdc2045e	-0.09473489
202	0xbecd52e9	-0.40102318
203	0xbea245e2	-0.3169394
204	0x3e20634c	0.15662879
205	0x3e23f5d3	0.16011743
206	0x3eba4b5d	0.36385623
207	0x3e07db6d	0.13267298
208	0x3ec04816	0.37554997
209	0x3e7dae02	0.2477341
210	0x3d025775	0.031821687
211	0xbccc9459	-0.024973081
212	0xbee225fc	-0.44169605
213	0x3e882a02	0.2659455
214	0xbe243b7e	-0.1603832
215	0x3e97efec	0.29675233
216	0xbc778566	-0.015107488
217	0xbcda7367	-0.026666356
218	0x3dd48a43	0.10377934
219	0x3df97474	0.12180415
220	0xbd259aa9	-0.0404307
221	0xbe80f45d	-0.25186434
222	0xbe97538b	-0.29555926
223	0x3ede1b22	0.43380076
224	0x3ec8806e	0.39160484
225	0x3da7627b	0.081730805
226	0x3c231f3a	0.009956175
227	0x3de98d61	0.11403919
228	0x3d38eaa9	0.045145664
229	0xbeb7bdf0	-0.35887098
230	0xbe310c8b	-0.17289941
231	0xbe214953	-0.15750627
232	0x3da52051	0.080628045
233	0xbe89b856	-0.2689845
234	0xbd723e0e	-0.05914121
235	0x3e687b66	0.22703323
236	0x3ea02992	0.31281716
237	0x3e6e66a8	0.23281348
238	0x3e9e05df	0.30863854
239	0xbe8e637a	-0.2781027
240	0xbe910370	-0.28322935
241	0x3f1588f9	0.5841213
242	0x3d987473	0.07444086
243	0x3e89094b	0.26764902
244	0xbefe8c59	-0.49716452
245	0x3dd83246	0.10556464
246	0xbefbc545	-0.49173942
247	0xbeacef7b	-0.3377646
248	0x3ea47b68	0.32125401
249	0x3e1eb32f	0.1549804
250	0xbec79982	-0.38984305
251	0xbcbfdc6d	-0.023420537
252	0x3e38d4e0	0.18049955
253	0x3db89919	0.09013576
254	0xbd871cb4	-0.065972716
255	0xbe175feb	-0.14782684

fc3.weight f4 [128, 256]
0	0xbe098a2d	-0.13431616
1	0x3d775f5e	0.060393684
2	0xbc3341a8	-0.010940947
3	0x3e2b27e5	0.16714437
4	0x3ecc4782	0.39898306
5	0xbcfd01e4	-0.03088469
6	0xbe053afe	-0.13010785
7	0xbe005c3b	-0.12535183
8	0x3dd9e9ce	0.10640298
9	0xbe3b4eee	-0.18291828
10	0xbc8325f1	-0.016009303
11	0xbe6670b7	-0.22503935
12	0x38354a16	4.322276e-05
13	0x3cdc4665	0.026889035
14	0xbec5c258	-0.38624835
15	0x3dbee3a6	0.09320764
16	0x3dcd268e	0.10017119
17	0x3da35636	0.07975428
18	0x3cc08392	0.023500238
19	0xbd94773c	-0.07249305
20	0xbee3e307	-0.44509146
21	0xbe8982d6	-0.26857632
22	0x3c197bbf	0.009367882
23	0x3ddfa413	0.109199665
24	0x3e48542b	0.19563358
25	0x3e83a5bd	0.25712386
26	0xbeb28f72	-0.34875065
27	0x3dee179f	0.11625599
28	0xbe325ba7	-0.17417775
29	0xbe00f8b8	-0.12594879
30	0x3d84f5dc	0.064922065
31	0xbe24c812	-0.16091946
32	0x3e31b937	0.1735581
33	0x3e9accb5	0.30234304
34	0xbe0ee8b7	-0.13955961
35	0xbe8fcaff	-0.2808456
36	0xbe217795	-0.15768273
37	0xbd95c67c	-0.073132485
38	0xbe67d57d	-0.22640033
39	0xbec28d21	-0.37998298
40	0xbe3e4cf8	-0.18584049
41	0xbe2eb838	-0.17062461
42	0xbe37d462	-0.17952111
43	0xbd29d0f3	-0.041459035
44	0x3ce7c321	0.028291287
45	0xbe336093	-0.17517309
46	0xbe0975db	-0.13423865
47	0xbdeba2ac	-0.115056366
48	0x3e937471	0.28799775
49	0xbe24d533	-0.16096954
50	0x3d32eb45	0.0436814
51	0xbe25fc89	-0.16209616
52	0x3d6100c6	0.05493238
53	0xbe03a0fd	-0.12854381
54	0x3e15ae92	0.14617375
55	0xbe1634bb	-0.14668553
56	0x3dcb9858	0.09941167
57	0xbe9d5018	-0.3072517
58	0xbe0cfe5b	-0.13768904
59	0xbc00f1d4	-0.007870156
60	0xbf5673ab	-0.83770245
61	0xbdb2fca5	-0.08739594
62	0x3e83f54a	0.25773078
63	0x3d2d6c4c	0.042339608
64	0xbdff8201	-0.12475968
65	0xbe912bfc	-0.2835387
66	0xbd82bcb0	-0.063836455
67	0x3d7208ea	0.059090532
68	0x3e1ad479	0.15120114
69	0xbebd1d69	-0.369365
70	0xbd35e2b0	-0.04440564
71	0xbd3f4d77	-0.046704736
72	0xbee4dd03	-0.4469987
73	0xbdd6dbd7	-0.1049115
74	0xbcac3baf	-0.021024553
75	0xbe9442f8	-0.28957343
76	0x3dda4ece	0.10659562
77	0xbdfd4e39	-0.123684354
78	0xbd71e67d	-0.0590577
79	0xbe4dbdb4	-0.20091897
80	0x3cf61a6d	0.030041898
81	0x3d05f5b7	0.032705035
82	0xbdac5862	-0.08415295
83	0xbe5e8cfb	-0.21733467
84	0x3e686384	0.22694212
85	0x3daa7f7d	0.08325098
86	0xbe2ed46c	-0.1707322
87	0xbe956d64	-0.2918502
88	0x3dd03abf	0.10167455
89	0x3d5d730a	0.054064788
90	0x3d626bdd	0.055278648
91	0x3d8f659e	0.07001804
92	0xbd83f8fc	-0.064439744
93	0xbdc47b27	-0.09593802
94	0xbdec71e4	-0.115451604
95	0x3e8ab83f	0.27093694
96	0xbda4c2f9	-0.080450006
97	0xbd79d67d	-0.060995568
98	0x3e76be1f	0.24095963
99	0x3d8fc6f0	0.07020366
100	0x3e42979a	0.19003144
101	0xbcd5c3a5	-0.026094267
102	0x3d15165f	0.036398288
103	0xbdc6f7b4	-0.09715214
104	0x3bd53e67	0.006507683
105	0x3dd9029f	0.10596203
106	0x3d8cc3e2	0.06873299
107	0xbe33847b	-0.17531006
108	0x3e6dfafa	0.23240271
109	0x3e4dc6ba	0.2009534
110	0xbe9221e9	-0.28541496
111	0x3d3245d3	0.04352362
112	0x3da3b7bd	0.0799403
113	0xbef03f67	-0.46923372
114	0xbe2861e0	-0.16443586
115	0x3cef5d1f	0.029219208
116	0x3e1cb751	0.15304305
117	0x3e199b0d	0.15000553
118	0x3e401384	0.18757445
119	0xbd3bf361	-0.0458864
120	0x3e42288b	0.18960778
121	0xbe67ea58	-0.22647989
122	0xbf3f1fb1	-0.7465773
123	0xbe390ce7	-0.18071328
124	0xbd683465	-0.056690592
125	0xbe88be70	-0.26707792
126	0xbd4dfedb	-0.050291877
127	0xbe769583	-0.24080472
128	0x3d9d0aaa	0.0766805
129	0x3e2ca09c	0.16858143
130	0x3e21e382	0.15809444
131	0x3e16bb53	0.14719896
132	0xbd61b090	-0.055100024
133	0xbd462da6	-0.048383377
134	0xbe552fae	-0.2081897
135	0x3cbfe5f2	0.023425076
136	0xbd68cdba	-0.05683682
137	0xbe1694df	-0.14705227
138	0x3ccd2423	0.025041645
139	0xbe6f8a4b	-0.23392598
140	0xbdc1e004	-0.09466556
141	0xbe752db4	-0.23943216
142	0xbd78ceb1	-0.06074399
143	0xbd8881ed	-0.066654064
144	0xbc9be2e9	-0.019029098
145	0x3e66fdec	0.22557801
146	0xbe9fa19b	-0.31177983
147	0x3e0df9d7	0.13864838
148	0xbebf6904	-0.37384808
149	0x3dcc276b	0.09968456
150	0x3daa4940	0.083147526
151	0xbc96875c	-0.018375091
152	0x3e5928f1	0.21207024
153	0xbeb6a77d	-0.35674658
154	0x3d865848	0.06559807
155	0xbda485cb	-0.080333315
156	0x3e3b37bb	0.18282978
157	0x3c8a784f	0.01690307
158	0xbd84fdca	-0.06493719
159	0x3d9759a3	0.07390144
160	0x3d7f52db	0.062334877
161	0x3dde41d0	0.108523965
162	0x3deaf48f	0.11472427
163	0xbe6a31fc	-0.2287063
164	0x3dc9bfa8	0.09851009
165	0x3d50afd4	0.050948933
166	0xbe3edc35	-0.1863869
167	0xbe8c8d8c	-0.27451742
168	0x3e6e2294	0.23255378
169	0xbd5fb822	-0.054618962
170	0xbe3326e4	-0.17495304
171	0xbc850a83	-0.016240364
172	0x3c0a3de6	0.008437609
173	0xbe03ea98	-0.12882459
174	0xbe722a0c	-0.23648852
175	0xbcc519b2	-0.024060104
176	0x3d0a61cb	0.03378467
177	0xbeece580	-0.46268845
178	0x3e855c38	0.2604692
179	0xbd330fc0	-0.043716192
180	0xbe81b977	-0.2533681
181	0xbd61f2cf	-0.0551632
182	0x3dca2963	0.09871175
183	0x3e175a66	0.14780578
184	0xbe0fa687	-0.14028369
185	0xbe357e8b	-0.17724054
186	0xbe814bc4	-0.25253117
187	0xbe12367e	-0.142786
188	0xbe772987	-0.24136935
189	0xbd117bc9	-0.03551844
190	0xbd24833b	-0.040164214
191	0x3d429458	0.047504753
192	0x3d991509	0.07474715
193	0x3e86e483	0.26346216
194	0xbe10d80c	-0.14144915
195	0xbbd60a5f	-0.006531998
196	0xbd69cfc8	-0.05708292
197	0xbe8ea514	-0.2786032
198	0xbea2e9d0	-0.3181901
199	0x3e7c6d53	0.24651079
200	0x3e6e4620	0.23268938
201	0xbdeafcdd	-0.11474011
202	0xbe55bab5	-0.20872004
203	0xbe0e25d7	-0.13881622
204	0x3e70c1e2	0.2351146
205	0xbe70a2af	-0.23499559
206	0xbd25a106	-0.040436767
207	0xbdb36d2b	-0.087610565
208	0xbd90d44e	-0.07071744
209	0xbe756ba0	-0.23966837
210	0xbd86881d	-0.0656893
211	0xbd6955c9	-0.056966577
212	0xbd26ef9c	-0.040755853
213	0x3c484d8f	0.012225523
214	0x3d90d5c8	0.070720255
215	0x3da844d1	0.08216251
216	0x3d3dad6a	0.04630796
217	0x3e261084	0.16217238
218	0xbe88c43f	-0.26712224
219	0x3ca2a59e	0.019854363
220	0x3df2c84e	0.11854611
221	0x3e175fee	0.14782688
222	0x3e3306cd	0.17483063
223	0xbe97cc7c	-0.29648197
224	0x3c3f572b	0.011678497
225	0x3d2ee954	0.042702988
226	0x3e365ada	0.17808095
227	0xbc8c0c64	-0.017095752
228	0xbe2b512a	-0.1673018
229	0xbe06add3	-0.13152246
230	0x3c1d6f03	0.009608987
231	0xbe07b2a2	-0.13251737
232	0x3dc1b6b5	0.09458677
233	0x3d57a01e	0.052642934
234	0xbe7465a2	-0.23866895
235	0x3e2a7305	0.16645439
236	0xbd30de83	-0.043180954
237	0xbe316307	-0.17322932
238	0xbe824e28	-0.25450253
239	0xbe8d2931	-0.2757049
240	0xbdabce87	-0.08389001
241	0xbe297e1a	-0.1655201
242	0x3e8e981f	0.27850434
243	0xbd81f019	-0.06344623
244	0xbd7ec97f	-0.06220388
245	0xbed7bc57	-0.4213588
246	0x3e526931	0.2054794
247	0xbd7f17a7	-0.062278416
248	0xbe7e201f	-0.2481694
249	0xbd53ba3b	-0.051691275
250	0x3da9d427	0.08292418
251	0x3e01faf6	0.1269339
252	0xbee9180e	-0.45526165
253	0xbe4f0f80	-0.20220757
254	0xbcf3e91e	-0.029774245
255	0x3b663520	0.003512688

fc3.bias f4 [128]
0	0x3c895a3d	0.016766662
1	0x3c9c96b1	0.019114824
2	0xbe7be26f	-0.24598096
3	0xbd53155d	-0.051534045
4	0x3cde5da6	0.027144264
5	0xbe5fa9c2	-0.21842101
6	0xbc1644cd	-0.009171677
7	0x3e3517e1	0.1768489
8	0x3c818a2d	0.015812958
9	0xbe751639	-0.23934259
10	0xbdb74e96	-0.08950536
11	0xbd6e5fbb	-0.058196764
12	0xbd56418d	-0.052308608
13	0x3debf036	0.11520426
14	0xbcab6c6a	-0.02092572
15	0x3df88c33	0.12136116
16	0xbe2ba1d1	-0.16760947
17	0x3cf26252	0.029587898
18	0xbdd3cc5a	-0.10341711
19	0xbdbcab84	-0.092124015
20	0x3dc7f39d	0.097632624
21	0x3f189b24	0.59611726
22	0x3e2bdc67	0.16783296
23	0x3e5b7f97	0.2143539
24	0x3ea21bad	0.3166174
25	0x3e952065	0.29126278
26	0x3dc10289	0.09424312
27	0x3e80b38e	0.2513699
28	0x3e220b93	0.15824728
29	0xbe310d59	-0.17290248
30	0x3d52ea8e	0.05149322
31	0x3e6a1a4d	0.22861595
32	0xbe2921c0	-0.16516781
33	0x3e67426c	0.22583932
34	0xbe6f2c4b	-0.2335674
35	0xbe251bcb	-0.16123883
36	0x3e1e731b	0.15473597
37	0x3e12ace5	0.14323767
38	0xbd6b6af2	-0.057475038
39	0xbe19588f	-0.14975189
40	0x3ec13a37	0.37739727
41	0xbe700ba2	-0.23441938
42	0x3eae900c	0.34094274
43	0x3eb788e9	0.35846642
44	0xbd9574b9	-0.07297654
45	0x3e875cd7	0.2643802
46	0xbd9dc1f4	-0.07703009
47	0x3e813a81	0.25239947
48	0xbd8d23fd	-0.0689163
49	0x3df436db	0.11924525
50	0xbe7fcc2f	-0.24980234
51	0x3cbdd81e	0.023174342
52	0x3e4c396f	0.19943784
53	0x3a8323b7	0.0010005151
54	0x3c87caba	0.01657616
55	0x3e611c35	0.21983416
56	0xbed1ccf9	-0.40976694
57	0x3eb5ec01	0.3553162
58	0xbe63f9e4	-0.22263294
59	0x3dc07667	0.093975835
60	0xbd8264d1	-0.063668855
61	0x3e1c0b23	0.15238623
62	0xbea19a1c	-0.3156289
63	0xbcecec4e	-0.028921273
64	0x3d8dea00	0.069293976
65	0x3e0b23a2	0.13587812
66	0xbc1d9c83	-0.009619835
67	0xbe14ee12	-0.14543942
68	0x3b9c9dfe	0.0047795763
69	0xbe44385d	-0.19162126
70	0x3e11637f	0.14198111
71	0xbe089c5b	-0.13340895
72	0x3eaf136a	0.341945
73	0xbdc1d883	-0.094651245
74	0xbe138fd1	-0.1441033
75	0x3e09c2fa	0.13453284
76	0xbce2f081	-0.027702572
77	0xbd3f376b	-0.04668371
78	0x3da915aa	0.08256085
79	0xbdb1f28c	-0.0868884
80	0xbd10c5d8	-0.03534493
81	0xbdd3433f	-0.103155605
82	0xbd2a94b0	-0.041645706
83	0x3ea633c0	0.32461357
84	0x3e59e6aa	0.21279398
85	0x3e1be740	0.15224934
86	0x3e4d966d	0.20076914
87	0xbd99d09e	-0.07510494
88	0x3e898634	0.268602
89	0x3e21cfea	0.15801969
90	0xbe067cc9	-0.1313354
91	0x3f00b6f8	0.5027919
92	0x3e3bdb4f	0.18345378
93	0x3dd4467f	0.103650086
94	0x3ea50a26	0.32234305
95	0xbc020254	-0.007935125
96	0xbe578206	-0.21045694
97	0x3e36a772	0.17837313
98	0x3e6b13db	0.22956793
99	0xbc57c386	-0.013169175
100	0x3ec6ba38	0.3881395
101	0x3d2b1d59	0.041776035
102	0x3ea0c295	0.31398454
103	0x3bd60fd8	0.0065326504
104	0x3f000be5	0.5001815
105	0xbe08c5b3	-0.13356666
106	0xbc99fa4a	-0.018796105
107	0x3e07b070	0.132509
108	0xbe013580	-0.12618065
109	0xbda473bf	-0.08029889
110	0x3c2efee0	0.010680884
111	0xbe3f0f9d	-0.186583
112	0x3e5abaf9	0.21360387
113	0xbe61d4a7	-0.22053777
114	0x3df8e195	0.12152401
115	0x3e964b5f	0.2935438
116	0x3e225e3b	0.15856259
117	0x3daead95	0.08529202
118	0xbbd37042	-0.006452591
119	0xbe1ce2b7	-0.1532086
120	0x3ead3036	0.33825845
121	0x3e12f716	0.14352068
122	0xbe3cfd2e	-0.18455955
123	0xbcc9f768	-0.024654105
124	0xbe1cc559	-0.15309657
125	0x3e800102	0.2500077
126	0x3e56a8be	0.20962808
127	0xbe367747	-0.17818938
